AI-Chatbot/data.pth (torch, 7082 bytes, 6 tensors)

l1.weight f4 [8, 79]
0.19629857 0.7905784 -0.62285215 0.46909273 0.0006578385 0.41286078 1.1341068 0.6917082
-0.28644165 -0.58104086 -0.74633765 0.36571896 -0.3296721 -0.7176771 0.18633975 0.443895
0.663715 0.084184505 0.06358427 0.24976283 0.12151316 -0.2640024 0.6036742 0.26525196
0.09246617 0.27820987 0.7921199 0.066824526 0.26639444 0.39017296 0.23938982 0.23399188
0.09215905 0.25978 0.117269374 0.5236152 -0.29887742 0.272054 -1.0737281 0.1348293
0.21222416 0.46166682 0.55995005 0.26961675 -0.051760826 -0.6475365 0.15848672 1.1571876
0.28932467 0.0880752 -0.83323723 0.036758572 -0.28624353 -0.18882598 -1.028388 0.17464976
0.3519594 0.5161111 -0.37311935 0.4752472 0.30162248 0.6344818 0.13743581 0.09066429
0.028215865 -0.51507473 0.6311907 0.66649085 0.4107447 0.07734308 0.29457638 0.057396248
-0.28510273 0.22819804 0.5801217 -0.4919271 -0.2549051 0.30826783 0.3155991 0.5975974
0.2992365 0.7001237 0.21261038 0.022458304 -0.022465967 1.2278209 -0.26757735 0.47792494
0.4948573 0.6503887 -0.39291033 1.3973379 0.4928267 -0.04666158 0.651043 1.1759478
0.6402195 0.27608523 0.4003763 0.4961766 -0.20805076 -0.24253507 0.5714686 0.58239365
0.11366508 -0.2600271 0.16944753 0.04562228 0.61212033 0.08342905 0.08347527 -0.38809425
0.31127504 0.66132987 0.3808279 -0.38508233 -0.94810224 -1.1553926 0.07380111 -0.7927219
-0.18046242 -0.011266334 0.3296059 0.44269148 0.45464972 0.3379831 -1.1551723 0.5496648
0.033330593 0.4705061 -0.50142574 0.40964252 0.46064657 -0.30865827 0.74811035 0.8462804
-0.26965526 -0.29732305 0.662228 0.19797517 -0.3155484 -0.08365222 0.5691727 0.64579105
1.1544397 -0.63996214 1.0987339 0.63330257 -0.15191258 -0.30012274 0.3333998 -0.5375071
-0.23177385 -0.1062819 -0.39347577 0.42470193 0.3616088 0.017918222 0.2900267 0.09082885
-0.6784966 -0.14886275 0.44190088 0.68945104 -1.1544708 0.70191103 -0.2545374 -0.43481645
-0.7290342 0.7227816 0.88067144 -0.36844763 0.5322581 -0.76595736 -1.1156632 -0.5151799
0.04254394 -0.25157464 -0.5399166 0.35691458 -0.07112289 -0.41395035 0.08067539 0.36926052
0.72825813 -0.26547906 0.7232956 -0.029084964 0.7229726 0.7488242 0.6011192 0.3637869
0.10150491 0.06518537 0.6147918 0.0077265827 0.997243 0.36090112 -0.05383336 0.5228828
-0.1736254 -0.23210306 0.3456543 -0.6597904 0.18689823 -0.32721055 -0.60032326 0.3680112
-0.8482245 0.9006064 -0.27699995 -0.23882708 -0.70098567 0.18029433 -0.17261891 0.31019402
0.36015108 -0.34555915 -0.32985362 0.008481218 0.18073522 -0.56418896 -0.53480655 0.14665002
0.00826757 0.03045792 0.08524132 0.65273666 0.5177629 0.15140773 0.32427198 0.65205324
0.083129056 0.37761682 -0.31571606 0.31129974 0.52511805 -0.251942 0.66513044 -0.4019751
0.22195758 -0.3539135 -0.3695761 0.9445995 0.8204717 0.004142394 -0.30229175 -0.19336995
-0.45592785 -1.2690796 -0.19817112 -0.35065323 -0.07715173 1.2898026 0.65232104 0.4056256
00000000: 7e02 493e 5963 4a3f 3d73 1fbf ec2c f03e
00000010: cb72 2c3a 7d62 d33e 692a 913f ca13 313f
00000020: 7ba8 92be 18bf 14bf fc0f 3fbf 843f bb3e
00000030: c8ca a8be b0b9 37bf d9cf 3e3e 3546 e33e
00000040: 3ae9 293f ed68 ac3d 7838 823d d4c1 7f3e
00000050: e4db f83d 532b 87be 648a 1a3f 1bcf 873e
00000060: e75e bd3d 8671 8e3e 5fc8 4a3f 4cdb 883d
00000070: da64 883e c0c4 c73e 9b22 753e 919b 6f3e
00000080: e2bd bc3d e201 853e ed2a f03d a50b 063f
00000090: 7606 99be a94a 8b3e ec6f 89bf b110 0a3e
000000a0: 4a51 593e 985f ec3e e358 0f3f 350b 8a3e
000000b0: 2903 54bd f4c4 25bf 584a 223e b91e 943f
000000c0: 5d22 943e c560 b43d 094f 55bf 2890 163d
000000d0: 838e 92be 995b 41be 38a2 83bf 63d7 323e
000000e0: 0634 b43e db1f 043f 8009 bfbe 9a53 f33e
000000f0: 436e 9a3e 666d 223f f9bb 0c3e 33ae b93d
00000100: f524 e73c f0db 03bf b795 213f 259f 2a3f
00000110: 214d d23e 0c66 9e3d b7d2 963e 5418 6b3d
00000120: fcf8 91be bfac 693e db82 143f dedd fbbe
00000130: ec82 82be 48d5 9d3e 3596 a13e 25fc 183f
00000140: 8735 993e 4f3b 333f 89b6 593e 7afa b73c
00000150: 8c0a b8bc 3c29 9d3f e6ff 88be 94b2 f43e
00000160: f05d fd3e e07f 263f 8b2b c9be f8db b23f
00000170: c853 fc3e 3720 3fbd c1aa 263f 7585 963f
00000180: 6de5 233f 0b5b 8d3e 1ffe cc3e dc0a fe3e
00000190: 420b 55be 1d5b 78be c44b 123f c017 153f
000001a0: 3dc9 e83d 4622 85be a783 2d3e 6ede 3a3d
000001b0: ebb3 1c3f dadc aa3d 15f5 aa3d 4ab4 c6be
000001c0: 715f 9f3e ea4c 293f e0fb c23e 8329 c5be
000001d0: d4b6 72bf e8e3 93bf 0925 973d d3ef 4abf
000001e0: 24cb 38be 6e96 38bc 1bc2 a83e 75a8 e23e
000001f0: d9c7 e83e 1f0c ad3e b0dc 93bf d5b6 0c3f
00000200: a985 083d 2de6 f03e 705d 00bf aabc d13e
00000210: ded9 eb3e 7508 9ebe 2984 3f3f d5a5 583f
00000220: 4110 8abe ba3a 98be c687 293f 01ba 4a3e
00000230: 8f8f a1be db51 abbd 4db5 113f 9052 253f
00000240: aec4 933f 8fd4 23bf 50a3 8c3f 1e20 223f
00000250: f98e 1bbe b0a9 99be 61b3 aa3e 119a 09bf
00000260: 2056 6dbe 53aa d9bd a875 c9be 8872 d93e
00000270: ca24 b93e 3cc9 923c 617e 943e 7a04 ba3d
00000280: f4b1 2dbf 7a6f 18be d540 e23e dd7f 303f
00000290: b3c5 93bf 71b0 333f ba52 82be 43a0 debe
000002a0: fca1 3abf 3708 393f af73 613f 2ba5 bcbe
000002b0: 1142 083f c815 44bf 0dce 8ebf d4e2 03bf
000002c0: 8e42 2e3d 64ce 80be f937 0abf 82bd b63e
000002d0: e1a8 91bd 4df1 d3be 2439 a53d b70f bd3e
000002e0: 206f 3a3f dfec 87be e729 393f 9743 eebc
000002f0: bb14 393f f1b2 3f3f f3e2 193f 4742 ba3e
00000300: cee1 cf3d e87f 853d ff62 1d3f 462f fd3b
00000310: 514b 7f3f 08c8 b83e 5f80 5cbd a6db 053f
00000320: dbca 31be 6dac 6dbe 9af9 b03e 06e8 28bf
00000330: 4062 3f3e 2488 a7be c9ae 19bf f76b bc3e
00000340: 3e25 59bf 248e 663f f0d2 8dbe 168f 74be
00000350: cc73 33bf 149f 383e 03c3 30be c0d1 9e3e
00000360: b965 b83e 21ed b0be 93e2 a8be cef4 0a3c
00000370: a712 393e b06e 10bf 15e9 08bf 6c2b 163e
00000380: b474 073c e382 f93c 0093 ae3d c019 273f
00000390: 1c8c 043f a10a 1b3e fa06 a63e f6ec 263f
000003a0: 913f aa3d fe56 c13e 89a5 a1be ae62 9f3e
000003b0: 236e 063f 8bfe 80be fd45 2a3f aecf cdbe
000003c0: d948 633e 2634 b5be 1439 bdbe 46d1 713f
000003d0: 6f0a 523f ebbc 873b fcc5 9abe c602 46be
000003e0: 606f e9be 3371 a2bf 5fed 4abe d288 b3be
000003f0: ba01 9ebd 4018 a53f 83fe 263f 29ae cf3e

l1.bias f4 [8]
0.8986744 0.9877118 0.9842848 0.65799904 0.6356668 0.6606091 0.9271326 1.1089584
00000000: 870f 663f aeda 7c3f 17fa 7b3f a072 283f
00000010: 0fbb 223f ae1d 293f 9058 6d3f 59f2 8d3f

l2.weight f4 [8, 8]
-0.34916365 -0.10653716 -0.26432976 -0.31729084 -0.20613222 0.043376446 0.19142571 -0.30132607
2.041687 1.0699693 0.47535512 0.43689445 -1.1447482 -0.74089646 0.5584269 -0.36073303
1.1483182 0.16936094 0.5512323 1.8158021 0.22718428 0.7366457 -1.5561255 0.9607804
1.40656 -0.3618745 1.0871116 0.1020258 1.2487899 -0.057319686 0.76007426 -0.9592592
-0.026826413 1.6289885 -1.1755061 0.09979376 0.7390441 -1.1071146 1.6286879 0.8841828
-0.8671882 0.49586302 1.4896244 -0.62974495 -1.1788193 1.8304219 1.1069316 1.7906787
-0.28910044 1.0751487 1.4453284 -0.95571524 1.9285061 0.8933019 1.7155725 -0.244554
1.0174383 1.4555082 -1.5751241 1.60484 -1.1608635 -0.59801626 0.37929276 -0.02907811
00000000: 94c5 b2be 2830 dabd 3b56 87be f273 a2be
00000010: 5314 53be 80ab 313d 1a05 443e 6947 9abe
00000020: 00ab 0240 c1f4 883f bf61 f33e a1b0 df3e
00000030: 1c87 92bf 64ab 3dbf 11f5 0e3f 00b2 b8be
00000040: 17fc 923f f46c 2d3e 8f1d 0d3f 346c e83f
00000050: ffa2 683e d094 3c3f 1f2f c7bf b4f5 753f
00000060: 280a b43f 9d47 b9be 7926 8b3f e7f2 d03d
00000070: 59d8 9f3f 0cc8 6abd 3a94 423f 0392 75bf
00000080: 11c3 dbbc b282 d03f fc76 96bf ac60 cc3d
00000090: fe31 3d3f eeb5 8dbf d878 d03f ce59 623f
000000a0: 0c00 5ebf c2e1 fd3e 03ac be3f f736 21bf
000000b0: 8de3 96bf 444b ea3f efaf 8d3f f634 e53f
000000c0: f904 94be 799e 893f 8500 b93f c1a9 74bf
000000d0: 4ad9 f63f 6faf 643f e197 db3f 5d6c 7abe
000000e0: 6b3b 823f 184e ba3f ab9d c9bf 666b cd3f
000000f0: 2d97 94bf 9817 19bf a932 c23e 3735 eebc

l2.bias f4 [8]
-0.111560434 1.080269 0.29511812 0.4011176 0.28166017 1.0130765 0.09169852 0.118836366
00000000: cc79 e4bd 4146 8a3f b919 973e 495f cd3e
00000010: c335 903e 7eac 813f 6fcc bb3d 7b60 f33d

l3.weight f4 [17, 8]
-0.16526677 0.71716404 -0.5037368 -0.27567738 0.17192574 -1.4842763 -0.5572178 0.8244065
-0.09032655 -0.34728402 -1.5555611 -0.12259088 0.25536615 -0.22691861 0.6170794 -1.384295
-0.25896224 -0.01633331 -1.553755 0.045467727 0.49099734 -1.950388 0.3731582 0.28991538
-0.24624503 0.31501704 0.5892039 -1.496519 0.3940207 -0.52769434 -1.5053605 0.5086936
0.30087468 0.15882467 0.5851136 -1.0977352 -0.6885996 0.5782882 -2.3828247 0.05346962
0.083069175 0.5014133 0.7714945 0.4652475 -1.9980356 -0.5835697 -0.2852451 -1.2447082
0.02840954 0.68276155 -0.44943962 -0.69517857 -0.5395465 0.71497536 -0.13550967 -2.2536001
0.31785515 -1.6364118 0.09257948 0.355188 -2.1469448 -0.017892558 0.6606588 -0.93542033
0.34514776 -1.6308296 0.8665298 -0.7151868 -0.8087629 0.51181364 -0.101006895 -1.8445735
0.013900191 -2.1099803 -1.6025296 0.093652226 -0.93175155 0.5132916 0.77839625 -1.0781531
0.12359837 0.31642509 -0.3101176 0.6805795 0.030753464 -1.4963554 0.1366015 -1.9873548
-0.04533124 0.6500804 0.6826765 0.40851113 -0.7874489 -1.603796 -1.6980542 0.4548917
-0.037636876 -0.46681964 -1.4614255 -2.099263 0.5716166 0.40770715 -0.20544884 0.59633493
-0.32836768 -2.0548754 -0.65892625 -0.9994212 0.79953647 0.36246824 0.14827028 -1.4626008
0.03030321 -0.36304256 0.10513569 -0.4801298 0.37171948 -0.7763393 0.065365896 0.2775065
0.3526244 -0.3236723 0.34168455 -2.2821639 -0.2991932 0.42857474 -0.2767223 0.09063815
-0.13162722 0.6587075 -1.9038866 -0.2846357 0.10280143 -0.17220673 -0.093876205 0.3549944
00000000: b13b 29be 1098 373f e5f4 00bf 9625 8dbe
00000010: 4d0d 303e c4fc bdbf d3a5 0ebf 4e0c 533f
00000020: 20fd b8bd 36cf b1be a01c c7bf ed10 fbbd
00000030: 5abf 823e 5a5d 68be eaf8 1d3f 9430 b1bf
00000040: b396 84be 6fcd 85bc 72e1 c6bf 5e3c 3a3d
00000050: 0164 fb3e 50a6 f9bf 970e bf3e ca6f 943e
00000060: a827 7cbe ea49 a13e 11d6 163f ef8d bfbf
00000070: 15bd c93e fa16 07bf a7af c0bf be39 023f
00000080: 3f0c 9a3e efa2 223e 01ca 153f 9682 8cbf
00000090: 1048 30bf b20a 143f 3380 18c0 f602 5b3d
000000a0: 2c20 aa3d 9f5c 003f aa80 453f ec34 ee3e
000000b0: a1bf ffbf d364 15bf a50b 92be 9952 9fbf
000000c0: 20bb e83c 76c9 2e3f f31c e6be 39f7 31bf
000000d0: b81f 0abf a008 373f 0cc3 0abe fc3a 10c0
000000e0: e9bd a23e f175 d1bf 4f9a bd3d 34db b53e
000000f0: 8b67 09c0 6a93 92bc ef20 293f b577 6fbf
00000100: 35b7 b03e 06bf d0bf e6d4 5d3f 7b16 37bf
00000110: 160b 4fbf 3806 033f b4dc cebd fc1a ecbf
00000120: a0bd 633c eb09 07c0 b11f cdbf bdcc bf3d
00000130: 4587 6ebf 1467 033f fa44 473f ec00 8abf
00000140: 2421 fd3d 7802 a23e bcc7 9ebe 753a 2e3f
00000150: b0ee fb3c 9388 bfbf 43e1 0b3e a461 febf
00000160: 40ad 39bd ab6b 263f e3c3 2e3f 5f28 d13e
00000170: 4096 49bf 3049 cdbf d759 d9bf 91e7 e83e
00000180: 2029 1abd fc02 efbe fe0f bbbf 535a 06c0
00000190: 7755 123f febe d03e 2e61 52be 68a9 183f
000001a0: cf1f a8be 1483 03c0 64af 28bf 11da 7fbf
000001b0: 6cae 4c3f 7095 b93e 2ad4 173e 8136 bbbf
000001c0: 703e f83c b7e0 b9be 6151 d73d 93d3 f5be
000001d0: 0452 be3e 2cbe 46bf 8ede 853d 5515 8e3e
000001e0: 2f8b b43e 60b8 a5be 47f1 ae3e f90e 12c0
000001f0: da2f 99be 266e db3e 8cae 8dbe 7fa0 b93d
00000200: 49c9 06be 0ea1 283f 8eb2 f3bf c5bb 91be
00000210: 8e89 d23d f656 30be 2b42 c0bd d3c1 b53e

l3.bias f4 [17]
-0.3651358 0.06696499 -0.009592598 -0.04429784 0.31398603 0.3600955 0.6041673 0.04151115
-0.16925165 0.39190114 0.2587066 0.24807747 -0.33185396 -0.048267074 -0.5662967 -0.27073446
-0.24973524
00000000: 14f3 babe f124 893d 462a 1dbc a771 35bd
00000010: c7c2 a03e 705e b83e b5aa 1a3f 9807 2a3d
00000020: 4e50 2dbe 44a7 c83e 3175 843e 0508 7e3e
00000030: c3e8 a9be b2b3 45bd d2f8 10bf b59d 8abe
00000040: 98ba 7fbe
